trained_model.pth (torch, 173960 bytes, 8 tensors)

fc1.weight f4 [256, 4]
0	0x3dc61610	0.09672177
1	0x3d5fa290	0.05459839
2	0x3e281c84	0.16417128
3	0x3eaa825e	0.33302587
4	0x3e6bd924	0.23032051
5	0xbbb78a80	-0.0056012273
6	0xbe76bd84	-0.24095732
7	0x3dc15c60	0.09441447
8	0x3ec789c6	0.389723
9	0x3e7481f0	0.23877692
10	0xbee7209e	-0.45142072
11	0x3dadf880	0.08494663
12	0xbeada3ec	-0.33914125
13	0x3ec20e96	0.37901753
14	0xbeec2fd8	-0.46130252
15	0xbee80d74	-0.45322764
16	0x3c841f20	0.016128123
17	0xbe924e18	-0.28575206
18	0xbea9e372	-0.3318134
19	0xbd06c670	-0.03290409
20	0x3dd0b248	0.101902544
21	0xbe75f524	-0.24019295
22	0xbef3263a	-0.47490102
23	0x3e976c92	0.2957502
24	0x3efc853c	0.493204
25	0xbef6c122	-0.48194224
26	0x3e27b438	0.16377342
27	0xbd4a33b0	-0.0493657
28	0xbd011cd0	-0.03152162
29	0xbd026e00	-0.031843185
30	0xbe8ef204	-0.27919018
31	0xbe788644	-0.24269968
32	0xbe575450	-0.21028256
33	0xbec40ae4	-0.3828956
34	0xbe98c12c	-0.29834878
35	0xbe3dec24	-0.18547112
36	0xbe96fa7c	-0.2948798
37	0xbed3218e	-0.41236538
38	0xbe3f15c8	-0.18660653
39	0x3eb45316	0.3521964
40	0xbe467838	-0.19381797
41	0x3e38d498	0.18049848
42	0x3bb81400	0.0056176186
43	0xbe8efd86	-0.27927798
44	0x3e7c6b84	0.24650389
45	0x3e5e4020	0.21704149
46	0xbed46ba8	-0.41488385
47	0xbdadb708	-0.08482176
48	0xbeb64f9e	-0.35607618
49	0xbee2edb0	-0.44321966
50	0x3ee4e2a0	0.4470415
51	0x3d22a770	0.039710462
52	0xbe6d60fc	-0.23181528
53	0xbe451ed8	-0.19250047
54	0x3ed1fa5a	0.41011316
55	0xbd8d9630	-0.069134116
56	0x3ea53f7e	0.32275003
57	0xbd16ad80	-0.036786556
58	0x3ecbd874	0.39813578
59	0xbe9923a4	-0.29910004
60	0x3e220f00	0.15826035
61	0xbdc14e00	-0.094387054
62	0xbe001b28	-0.1251036
63	0xbe67ddb0	-0.22643161
64	0x3e4e5a98	0.20151746
65	0xbed83514	-0.42227995
66	0x3ebd1724	0.36931717
67	0x3e2d0d38	0.16899574
68	0x3e082278	0.13294399
69	0x3ef7c616	0.48393315
70	0x3d64ab70	0.055827558
71	0x3e31962c	0.17342442
72	0x3ebb1520	0.36539555
73	0xbef4a228	-0.47779965
74	0x3c09f440	0.00842005
75	0x3ee1e2e4	0.44118416
76	0x3e0c0844	0.13675028
77	0x3edb89e8	0.42878652
78	0xbe0b69c0	-0.13614559
79	0xbccdb7c0	-0.025112033
80	0xbeded6c6	-0.43523234
81	0x3e97dbd8	0.29659915
82	0xbefa6084	-0.4890176
83	0x3eade34a	0.3396247
84	0xbeeaab46	-0.45833796
85	0x3cdb6ca0	0.026785195
86	0x3e96f264	0.29481804
87	0x3eaa428e	0.33253902
88	0x3e25afd4	0.16180354
89	0xbeeaeb12	-0.4588247
90	0xbedd5cc4	-0.43234837
91	0x3c80a6e0	0.015704572
92	0x3e46551c	0.19368404
93	0x3a877c00	0.0010336637
94	0x3eb4be32	0.35301358
95	0x3e8ed058	0.2789333
96	0xbe16dec0	-0.1473341
97	0x3ed831c4	0.42225468
98	0x3ef397b4	0.47576678
99	0x3e7cc52c	0.2468459
100	0x3e149174	0.14508611
101	0xbed6b3f8	-0.4193418
102	0xbbc35300	-0.005960822
103	0xbe0174b8	-0.12642181
104	0x3ede33d2	0.4339891
105	0xbeb097c8	-0.344908
106	0x3e2220a8	0.1583277
107	0x3ef054a8	0.46939588
108	0xbead0b98	-0.33797908
109	0xbc9a3540	-0.01882422
110	0xbe0264f0	-0.12733817
111	0x3ea2e6f2	0.31816822
112	0xbea988b8	-0.3311212
113	0xbe9fd4de	-0.31217092
114	0xbde06568	-0.10956842
115	0x3e20985c	0.1568312
116	0xbd86a250	-0.065739274
117	0x3eed30f4	0.4632641
118	0xbe3595a8	-0.1773287
119	0xbe274920	-0.16336489
120	0xbe368d14	-0.17827255
121	0xbeeff052	-0.46863037
122	0xbcd51980	-0.026013136
123	0x3dc1bf00	0.094602585
124	0xbef6581e	-0.48114103
125	0xbe5da068	-0.21643221
126	0x3eddadf2	0.43296772
127	0x3ed60160	0.41797924
128	0x3eb5fa0c	0.35542333
129	0x3e2e4e88	0.17022145
130	0xbe9e5a1a	-0.30928117
131	0x3df60560	0.12012744
132	0x3da3f050	0.0800482
133	0x3e2c43cc	0.16822737
134	0x3e9beb88	0.30453134
135	0xbd87b468	-0.06626207
136	0x3e7c2428	0.24623168
137	0xbeb14884	-0.34625638
138	0x3e76f140	0.24115467
139	0xbe4aaca0	-0.19792414
140	0xbe26e8a8	-0.16299689
141	0x3d396480	0.04526186
142	0xbdabff60	-0.08398318
143	0xbec0389a	-0.37543184
144	0x3d289550	0.04115802
145	0x3e83765c	0.2567624
146	0x3c771180	0.015079856
147	0xbd7c64a0	-0.0616194
148	0xbe246a18	-0.16056097
149	0x3ecffc06	0.40621966
150	0x3ec27f38	0.37987685
151	0xbeaf8054	-0.34277594
152	0xbe66302c	-0.22479314
153	0xbdccc818	-0.09999102
154	0xbc86da00	-0.016461372
155	0xbe995162	-0.29944903
156	0xbec57370	-0.38564634
157	0x3e8f3472	0.279697
158	0xbe4b69c4	-0.19864565
159	0xbefa5ec6	-0.4890043
160	0x3ed0bd36	0.40769356
161	0x3ef3556c	0.4752611
162	0xbe7c4554	-0.24635822
163	0x3ec6fdbe	0.38865465
164	0xbe904982	-0.28181082
165	0x3ead9d0c	0.3390888
166	0xbe61a914	-0.22037154
167	0x3ead7d20	0.33884525
168	0xbd90b6f0	-0.070661426
169	0xbe4f353c	-0.20235151
170	0x3eda3d0e	0.42624706
171	0x3ebdb3d6	0.37051266
172	0xbeb5e202	-0.35523993
173	0xbe9d145c	-0.30679595
174	0xbe3a9804	-0.18222052
175	0xbcf26040	-0.029586911
176	0xbe287450	-0.1645062
177	0xbe58542c	-0.21125859
178	0xbde5b348	-0.11215836
179	0xbc74fdc0	-0.014953077
180	0x3eaa8fbc	0.33312786
181	0x3c511180	0.01276052
182	0x3d861a50	0.065479875
183	0x3ea4b026	0.3216564
184	0x3efe4410	0.49661303
185	0xbefef182	-0.4979363
186	0x3e5513d0	0.20808339
187	0xbd644830	-0.055732906
188	0x3d8a7930	0.06761396
189	0x3ece235e	0.40261358
190	0x3ef661f0	0.48121595
191	0xbec00838	-0.3750627
192	0x3d322a60	0.043497443
193	0xbe256a90	-0.16153932
194	0xbe9697c4	-0.29412663
195	0xbec00caa	-0.37509662
196	0xbea30bce	-0.31844944
197	0x3d8a6ce0	0.067590475
198	0xbc4814c0	-0.012211978
199	0x3e3b319c	0.18280643
200	0x3e417044	0.18890482
201	0xbef42f14	-0.47692168
202	0xbea949fe	-0.33064264
203	0xbe92676e	-0.28594536
204	0xbe79df68	-0.24401629
205	0xbe384960	-0.1799674
206	0x3ecf4470	0.404819
207	0xbefff878	-0.49994254
208	0xbe8898f6	-0.266792
209	0xbe823ffe	-0.25439447
210	0x3e91d554	0.2848307
211	0xbe57e710	-0.21084237
212	0xbd4d72b0	-0.050158203
213	0xbe8e9a7c	-0.27852237
214	0xbe9460ba	-0.28980047
215	0x3e901694	0.28142226
216	0x3d7ebc30	0.06219119
217	0xbeac50aa	-0.33655292
218	0x3ec0ba96	0.37642354
219	0xbdf34680	-0.11878681
220	0x3e1992a0	0.14997339
221	0xbef5d8f0	-0.48017073
222	0x3e208c20	0.15678453
223	0xbe696864	-0.22793728
224	0xbd226650	-0.039648354
225	0x3eb9c714	0.36284697
226	0xbe1417a4	-0.14462143
227	0x3db410c8	0.08792263
228	0x3d18b430	0.037281215
229	0x3e9807fa	0.29693586
230	0xbedf85e2	-0.43656832
231	0xbebedf88	-0.37279916
232	0xbd2c5010	-0.04206854
233	0xbea35b16	-0.3190543
234	0x3dc95448	0.098305285
235	0x3de525f0	0.11188877
236	0x3e8b7826	0.27240103
237	0xbc145040	-0.009052336
238	0x3e157d38	0.14598548
239	0x3e7ad02c	0.24493474
240	0x3e9b5f0e	0.30345958
241	0xbbf45c00	-0.0074572563
242	0xbdf2a2b0	-0.118474364
243	0xbecef7ba	-0.40423375
244	0xbdf35f78	-0.118834436
245	0xbe817d36	-0.2529084
246	0xbd2cc100	-0.042176247
247	0x3cd26380	0.02568221
248	0xbebb94e8	-0.36637044
249	0x3df650c0	0.120271206
250	0xbe837140	-0.2567234
251	0xbd852950	-0.0650202
252	0x3e6e49d0	0.23270345
253	0xbd17cc90	-0.03706032
254	0xbe64bf4c	-0.22338599
255	0xbe2d810c	-0.16943759

fc1.bias f4 [256]
0	0xbc8d0b60	-0.017217338
1	0x3daf1ed8	0.08550805
2	0x3d46cb20	0.04853356
3	0x3e4cbf2c	0.19994801
4	0x3ea323d4	0.31863272
5	0xbedb7794	-0.42864668
6	0x3e75413c	0.23950666
7	0xbed2bf6c	-0.41161668
8	0xbed94d42	-0.42441756
9	0x3e9a800c	0.30175817
10	0x3d8bd420	0.06827569
11	0x3e2fb6a0	0.1715951
12	0xbe5a7bc8	-0.21336281
13	0xbec7d410	-0.39028978
14	0x3d926020	0.07147241
15	0xbe373424	-0.17890984
16	0xbd2ffdd0	-0.042966664
17	0xbe81c958	-0.25348926
18	0xbe2051e8	-0.15656245
19	0xbde3e388	-0.111273825
20	0xbd50df40	-0.050994158
21	0x3ef54138	0.4790132
22	0xbe7bec6c	-0.24601907
23	0x3cf77560	0.030207336
24	0x3eaaaf86	0.3333704
25	0x3cb15c60	0.021650493
26	0xbec7a716	-0.38994664
27	0x3d0a5170	0.03376907
28	0xbe8977c4	-0.26849186
29	0x3ea7bf28	0.32763028
30	0x3cd85680	0.026408434
31	0x3e940246	0.28907984
32	0xbba99d80	-0.005176246
33	0x3ec7702c	0.38952768
34	0x3db48b60	0.08815646
35	0x3eb6ba9a	0.3568924
36	0x3ede074a	0.43364936
37	0xbdca6948	-0.09883362
38	0xbe326678	-0.17421901
39	0x3e0ba008	0.13635266
40	0xbec255ce	-0.3795609
41	0xbe8a74de	-0.27042288
42	0x3dcd53b8	0.10025734
43	0x3ed2d61c	0.41178977
44	0xbe07e5c4	-0.13271242
45	0xbeaf7cfe	-0.3427505
46	0x3edf6176	0.43629044
47	0xbedbc110	-0.42920732
48	0xbec7732a	-0.3895505
49	0xb9ced000	-0.00039446354
50	0xbe9af88e	-0.30267757
51	0x3dbc67b0	0.09199464
52	0x3e5e33c4	0.21699435
53	0x3e812ed4	0.2523104
54	0x3ed2b5aa	0.41154224
55	0xbe313abc	-0.17307562
56	0xbec80936	-0.39069527
57	0x3ef878be	0.4852962
58	0x3efc5ec4	0.4929105
59	0x3e74866c	0.23879403
60	0x3eda79b2	0.4267097
61	0xbddc8ff8	-0.10769647
62	0xbd816170	-0.06317413
63	0x3e93250c	0.28739202
64	0x3e874cd4	0.26425803
65	0xbe83308e	-0.25622982
66	0x3e17fd84	0.14842802
67	0x3e9eb766	0.30999297
68	0x3e94179e	0.28924268
69	0x3eb59486	0.35464877
70	0x3eccab6a	0.3997453
71	0x3dd52688	0.1040774
72	0x3eeb4fd4	0.45959342
73	0xbe6b8cb8	-0.23002899
74	0xbce912e0	-0.028451383
75	0xbe88c8b8	-0.26715636
76	0x3bd3b080	0.0064602494
77	0x3ef6a94a	0.48176032
78	0xbe143950	-0.14474988
79	0xbe8d2dc4	-0.2757398
80	0xbe857e26	-0.26072806
81	0xbed2915e	-0.4112653
82	0x3ef117a2	0.47088343
83	0x3eee23f6	0.4651181
84	0x3eb40020	0.35156345
85	0x3d2e6d20	0.04258454
86	0xbdf49560	-0.119425535
87	0x3e1c752c	0.15279073
88	0xbe8fe000	-0.28100586
89	0xbeae74ea	-0.34073573
90	0xbedd132c	-0.4317869
91	0xbd7d4940	-0.061837435
92	0x3e7c3808	0.24630749
93	0x3de2e810	0.11079419
94	0x3e9f6b9e	0.31136793
95	0x3ef51b96	0.4787261
96	0x3ee35624	0.44401658
97	0xbe100b44	-0.14066797
98	0x3e168090	0.1469748
99	0xbdf4f5a8	-0.11960918
100	0x3ec525ae	0.3850531
101	0xbef55112	-0.47913414
102	0xbce51dc0	-0.027968287
103	0xbec6ebd8	-0.3885181
104	0xbeba058c	-0.36332357
105	0x3e908d40	0.28232765
106	0xbeebdb0c	-0.46065557
107	0x3e203e8c	0.1564886
108	0xbe380be0	-0.1797328
109	0x3e33ee88	0.17571461
110	0x3ed61dec	0.41819704
111	0xbe782288	-0.24231923
112	0x3ed80fc8	0.4219954
113	0x3ef1b55a	0.47208673
114	0xbc959880	-0.018261194
115	0x3e8771e0	0.26454067
116	0xbcefa200	-0.029252052
117	0x3eb98e8e	0.36241573
118	0x3ec95464	0.39322197
119	0x3eee7590	0.46574068
120	0x3ea7bf60	0.32763195
121	0x3ee04c2a	0.4380811
122	0xbd881f80	-0.06646633
123	0xbea9bef4	-0.33153498
124	0xbe77705c	-0.24163955
125	0x3e46090c	0.19339389
126	0xbe6a7bcc	-0.22898787
127	0xbee3aec2	-0.44469267
128	0xbe66888c	-0.22513026
129	0x3efcda62	0.49385363
130	0xbed24c3a	-0.4107378
131	0x3df669a0	0.12031865
132	0xbd3619a0	-0.04445803
133	0xbe269584	-0.16267973
134	0xbdb94790	-0.090468526
135	0x3eef924e	0.4679131
136	0xbe55eb9c	-0.20890659
137	0xbefdd814	-0.49578917
138	0x3d4296e0	0.047507167
139	0x3eb4658c	0.35233724
140	0xbe083574	-0.13301641
141	0xbe8ca538	-0.27469802
142	0x3e070ec8	0.13189232
143	0x3ed24eb0	0.4107566
144	0xbe63f02c	-0.22259587
145	0x3df712f8	0.12064165
146	0x3ea6e632	0.325975
147	0xbeda3386	-0.42617434
148	0xbea9a9c4	-0.33137333
149	0x3e899a28	0.26875424
150	0x3efec7a2	0.49761683
151	0x3ef9e394	0.4880644
152	0x3eea5932	0.45771176
153	0xbddc9800	-0.10771179
154	0x3ea65766	0.32488555
155	0x3cdd0480	0.026979685
156	0x3ef92c40	0.48666573
157	0x3dc17768	0.09446603
158	0xbd4049b0	-0.046945274
159	0x3e455360	0.19270086
160	0x3e3d2360	0.18470526
161	0x3e90cb9a	0.28280336
162	0x3e9bfcf4	0.30466425
163	0xbdd4f6c0	-0.10398626
164	0x3e1b29a4	0.15152603
165	0xbebd2182	-0.36939627
166	0xbe64e224	-0.22351891
167	0xbef60f14	-0.4805838
168	0xbe5ddbac	-0.2166583
169	0x3de60608	0.11231619
170	0xbdca2c78	-0.09871763
171	0x3e0f77bc	0.14010519
172	0xbd487c20	-0.0489465
173	0xbde9eea8	-0.11422473
174	0xbea3deac	-0.32005823
175	0xbd4e5600	-0.050374985
176	0x3d0962f0	0.03354162
177	0xbee1d45a	-0.44107324
178	0xbe982b96	-0.29720753
179	0x3d989880	0.07450962
180	0x3e9e97ec	0.30975282
181	0x3d98b810	0.07456982
182	0x3eb6e32a	0.35720187
183	0x3ec65b94	0.38741744
184	0x3e7f79d4	0.24948817
185	0xbdf3c288	-0.11902338
186	0x3ec8dd4a	0.3923133
187	0x3e3332bc	0.17499822
188	0x3df9aa80	0.121907234
189	0xbd77d8a0	-0.060509324
190	0xbeb963b8	-0.36208892
191	0x3e4644d4	0.19362193
192	0xbe0aa164	-0.13538128
193	0x3e3c5f14	0.18395644
194	0xbd8ea6e8	-0.069654286
195	0x3ef78806	0.48345965
196	0xbd2d39b0	-0.042291343
197	0xbe7eb910	-0.24875283
198	0x3efc1180	0.492321
199	0x3ee3423a	0.44386464
200	0x3d4e4dc0	0.050367117
201	0xbe50e310	-0.20399117
202	0x3e01b7f4	0.12667829
203	0xbeeb31f8	-0.4593656
204	0x3dd7a9b0	0.10530412
205	0xbe811d64	-0.25217736
206	0x3e6de59c	0.2323212
207	0xbebf8a12	-0.37410027
208	0xbe7268e8	-0.23672831
209	0xbdd602c0	-0.10449743
210	0xbe485410	-0.19563317
211	0xbeeabaaa	-0.45845538
212	0x3eb425e6	0.35185164
213	0x3e9cabfc	0.30599964
214	0xbeab3994	-0.33442366
215	0xbd6a4550	-0.057195008
216	0xbec1d538	-0.37857985
217	0xbea64332	-0.3247314
218	0xbedb46d8	-0.42827487
219	0x3eb91d68	0.36155248
220	0x3eb7a506	0.3586809
221	0x3edf3852	0.43597656
222	0x3efc3c3c	0.49264705
223	0xbdbbaac8	-0.09163433
224	0x3be60180	0.007019222
225	0xbef330e6	-0.47498244
226	0x3efdf2f6	0.49599427
227	0xbd84c150	-0.06482184
228	0x3db47788	0.08811861
229	0x3e7cfb34	0.24705201
230	0xbc7c4b40	-0.0153988
231	0x3dbcd950	0.092211366
232	0x3eee215a	0.4650982
233	0x3dfa2648	0.12214333
234	0x3ebea4b0	0.37235022
235	0x3ed6c3c0	0.4194622
236	0xbca9fb80	-0.020749807
237	0x3ec7f2a4	0.39052308
238	0xbe163d18	-0.14671743
239	0xbc1599c0	-0.009130895
240	0x3d300720	0.042975545
241	0x3eff22d0	0.49831247
242	0xbeb6db34	-0.35714114
243	0xbe5e5550	-0.21712232
244	0xbed8389c	-0.4223069
245	0xbeb1b36e	-0.34707206
246	0xbebfe2f8	-0.3747785
247	0xbd435340	-0.047686815
248	0xbbd42f00	-0.0064753294
249	0x3ef215f2	0.47282368
250	0x3ddf1a58	0.108936965
251	0x3df69b98	0.12041396
252	0xbea9a37c	-0.3313254
253	0xbda133a0	-0.07871175
254	0x3e24fbe4	0.16111714
255	0xbec30216	-0.3808753

fc2.weight f4 [128, 256]
0	0xbd1e9a64	-0.038721457
1	0x3d77544a	0.06038312
2	0xbd3b17f0	-0.045677125
3	0xbad97d00	-0.0016593039
4	0xbd59eca2	-0.053204186
5	0x3d098a6a	0.033579268
6	0xbd5a6ab2	-0.05332441
7	0xbcafbc10	-0.02145198
8	0x3c902f64	0.017600723
9	0xbd759db8	-0.059964865
10	0x3d0f916a	0.035050787
11	0x3d1f3daa	0.038877167
12	0xbd6afca8	-0.057369858
13	0x3c636e78	0.013881318
14	0xbc6c3d98	-0.014418982
15	0x3b060a20	0.0020452812
16	0x3b8a1e70	0.004215054
17	0xbd300a1e	-0.0429784
18	0xbb75cb40	-0.003750518
19	0x3b2d7160	0.0026465282
20	0xbd3ef6aa	-0.046621956
21	0x3d2c8db8	0.04212734
22	0xbcad1b44	-0.021131165
23	0x3d1149a8	0.035470635
24	0x3d399eb8	0.04531738
25	0xbc05bf28	-0.008163251
26	0xbd4c7f4c	-0.049926087
27	0xbcd8eb44	-0.02647937
28	0xbc558900	-0.013033152
29	0x3cec8a70	0.028874606
30	0x3d4fc5b6	0.05072566
31	0xbd46a5de	-0.048498027
32	0x3d63fde6	0.05566206
33	0xbb5457a0	-0.0032400861
34	0xbd3c72cc	-0.046007916
35	0x3d61e934	0.05515404
36	0xbd49f3f0	-0.049304903
37	0xbcdfcb74	-0.027318694
38	0x3d691b06	0.056910537
39	0x3d7439e8	0.059625536
40	0xbba6f0b0	-0.00509461
41	0x3d0bd030	0.03413409
42	0x3d50e8e2	0.051003344
43	0x3d2127e0	0.03934467
44	0x3c716058	0.014732443
45	0xbd214258	-0.03936991
46	0x3d007bce	0.03136807
47	0xbd471098	-0.04859981
48	0x3d271de0	0.040799975
49	0xbd1c0872	-0.03809399
50	0x3c7b77f8	0.015348427
51	0xbca72d5c	-0.020407371
52	0xbd13d6d6	-0.036093555
53	0xbd3ea114	-0.046540335
54	0xbd73e954	-0.05954869
55	0x3bbcb970	0.0057594106
56	0xbd397458	-0.04527697
57	0xbd15dfb2	-0.036590286
58	0x3c571c50	0.013129309
59	0x3d56c872	0.052437253
60	0x3d5a9010	0.053360045
61	0x3ce497c0	0.027904391
62	0x3d5e62cc	0.05429344
63	0xbd0c963c	-0.034322962
64	0x3cd8d450	0.026468426
65	0xbd3b9594	-0.045796946
66	0x3d68625a	0.05673442
67	0x3cf19284	0.02948881
68	0xbcec4fa0	-0.028846562
69	0xbd1c8942	-0.038216837
70	0x3d2accc2	0.04169918
71	0x3cc9a064	0.024612613
72	0xbb2967c0	-0.0025849193
73	0x3d6c0d16	0.057629667
74	0x3cfc4678	0.03079532
75	0x3bf25af0	0.0073960945
76	0xbce7db84	-0.028302915
77	0xbd0b7412	-0.03404624
78	0x3ba426b0	0.0050094947
79	0xbd7f4b16	-0.062327467
80	0xbd3b00b0	-0.045654953
81	0xbcc378a8	-0.023861244
82	0x3c370b10	0.011172071
83	0x3a99ec80	0.0011743456
84	0x3d629ea8	0.055327088
85	0x3d5cf7d8	0.0539473
86	0xbd783f0a	-0.060606994
87	0xbcc49898	-0.023998544
88	0xbd41cdda	-0.047315456
89	0x3c8c7470	0.017145365
90	0x3d4e84e6	0.05041971
91	0xbd7b8d90	-0.0614143
92	0xbd67f8ee	-0.056633882
93	0x3bcc7590	0.0062396005
94	0xbcb5895c	-0.022160225
95	0x3cce616c	0.025192939
96	0xbd5b141e	-0.053485982
97	0xbc6b03b8	-0.014344148
98	0x3c978dfc	0.01850032
99	0x3d0c8bd8	0.034313053
100	0xbd652dca	-0.05595187
101	0x3ccd1230	0.025033087
102	0xbb82e860	-0.0039949864
103	0xbd51dda8	-0.05123678
104	0xbd2c04c6	-0.04199674
105	0x3ceabc50	0.028654248
106	0x3d261ee2	0.040556796
107	0xbcee108c	-0.029060625
108	0x3d1eefd8	0.03880295
109	0x3c1b4c40	0.009478629
110	0x3d1c9f00	0.03823757
111	0xbd7b5954	-0.061364487
112	0x3c297e80	0.010345101
113	0xbcb705dc	-0.022341661
114	0x3be27120	0.006910458
115	0xbd3d6eaa	-0.046248116
116	0xbd1ec528	-0.03876224
117	0xbd6a10ae	-0.057144813
118	0x3c4e6e08	0.012599476
119	0xbd7696f0	-0.06020254
120	0x3a4f1000	0.00078988075
121	0xbcf96fa8	-0.03044875
122	0x3d168df6	0.03675648
123	0x3c148ae8	0.009066321
124	0xbd2f2ed4	-0.04276927
125	0xbd004da0	-0.03132403
126	0xbce95fdc	-0.028488092
127	0xbcc71510	-0.024302036
128	0xbd1bad52	-0.038007088
129	0xbca56e48	-0.020194188
130	0x3c9ebfc4	0.01937855
131	0x3c8dbb88	0.017301336
132	0x3c3b00b0	0.011413738
133	0x3d78eea8	0.060774475
134	0xbce5b35c	-0.028039627
135	0xbce6acfc	-0.028158657
136	0x3d779d64	0.060452834
137	0xbd4906dc	-0.049078807
138	0x3ad09140	0.0015912428
139	0xbcd14a14	-0.025548019
140	0x3d0a4c28	0.033764035
141	0x3cab2784	0.020892866
142	0xbcf41104	-0.02979327
143	0xbcbc26b8	-0.022967681
144	0x3d1f47e8	0.038886935
145	0x3b4c94a0	0.0031216517
146	0xbd51cc18	-0.05122003
147	0x3b166e40	0.0022953898
148	0x3d1af600	0.03783226
149	0x3d0c4d3c	0.034253344
150	0x3d5eceec	0.054396555
151	0xbd7f4878	-0.06232497
152	0xbcf2f3c0	-0.029657245
153	0xbd6caa10	-0.05777937
154	0x3d247384	0.040149227
155	0xbd3a1954	-0.04543431
156	0xbd4eaa00	-0.050455093
157	0x3c92e9b8	0.017933711
158	0x3d1b3ea4	0.037901536
159	0xbd0ae71e	-0.033911817
160	0x3d7457b4	0.059653953
161	0x3b3b87c0	0.002861485
162	0x3c7398b0	0.0148679465
163	0xbd01ec0a	-0.031719245
164	0xbc7a66f8	-0.015283339
165	0x3ccd5c80	0.025068521
166	0x3d079396	0.033099733
167	0x3cf36148	0.029709473
168	0xbcc949b0	-0.02457127
169	0x3c95d640	0.018290639
170	0x3d067e64	0.03283538
171	0xbd20fc3c	-0.03930305
172	0x3d0452fe	0.03230571
173	0x3b1cc6a0	0.00239221
174	0x3d127f9a	0.03576622
175	0x3d7abd66	0.06121578
176	0x3a438200	0.0007458031
177	0xbd66823c	-0.056276545
178	0x3d7844ac	0.060612366
179	0xbd754fa8	-0.05989042
180	0x38aa6400	8.124858e-05
181	0x3d6d71ee	0.05796998
182	0x3d28aab4	0.04117842
183	0x3d096eb6	0.033552848
184	0xbc205500	-0.009785891
185	0x3d7aa466	0.06119194
186	0x3c0d0868	0.008607961
187	0xbcbbad2c	-0.022909723
188	0x3cb28980	0.02179408
189	0x3d36ebb4	0.044658378
190	0xbd5b12ca	-0.053484716
191	0xbd25f5ba	-0.040517546
192	0xbc18af38	-0.009319119
193	0x3bd3d340	0.006464392
194	0x3d2a975e	0.04164826
195	0xbcaeccb0	-0.021337837
196	0xbc2ce3c0	-0.010552347
197	0x3d26b022	0.040695317
198	0xbd3cdc34	-0.04610844
199	0xbcfd7a90	-0.030942231
200	0x3c2b70d8	0.010463916
201	0xbd07535a	-0.033038475
202	0x3c720ba8	0.014773287
203	0xbd7e18e4	-0.062035456
204	0x3ce70e9c	0.028205208
205	0xbc3cf540	-0.0115330815
206	0xbc167438	-0.009182982
207	0xbd46caba	-0.04853318
208	0x3b18f720	0.0023340657
209	0xbcb06428	-0.021532133
210	0xbd56bcc2	-0.052426107
211	0x3d3c41f6	0.045961343
212	0xbb00f360	-0.0019676313
213	0x3b5abd20	0.0033376887
214	0xbd3f8172	-0.046754308
215	0x3d790fe4	0.06080617
216	0x3d5fb55c	0.054616317
217	0x3d2fc298	0.04291019
218	0x3c2c8c50	0.0105315
219	0x3c128760	0.008943409
220	0xbbd48ee0	-0.0064867586
221	0x3d5f572c	0.054526493
222	0xbc2c03f8	-0.010498993
223	0x3d3ef9aa	0.046624817
224	0x3d6431bc	0.055711493
225	0x3bebded0	0.007198192
226	0xbd13eda6	-0.03611531
227	0x3d0dbe1e	0.034605138
228	0xbd539cd4	-0.051663235
229	0x3d0eadb6	0.034833632
230	0x3d79075a	0.060798027
231	0x3cddc548	0.02707161
232	0xbd47708e	-0.048691325
233	0x3d48d360	0.049029708
234	0x3d0f9534	0.0350544
235	0x3cec58fc	0.028851025
236	0xbd1fc056	-0.039001785
237	0xbd1c5778	-0.038169354
238	0xbca8f6fc	-0.020625584
239	0xbd63b2dc	-0.055590495
240	0x3d61253c	0.05496715
241	0xbcae6038	-0.021286115
242	0x3d363b2c	0.044490024
243	0x3c937f24	0.018004961
244	0xbd64fe20	-0.055906415
245	0x3c808884	0.015690096
246	0x3b802bb0	0.003911458
247	0xbd7fd9ee	-0.062463693
248	0xbc0f3658	-0.008740984
249	0xbd261a00	-0.04055214
250	0x3c796070	0.015220746
251	0xbc1f9cf8	-0.009742014
252	0x3d263eb6	0.04058715
253	0x3d7f64cc	0.062351987
254	0xbc88871c	-0.016665988
255	0xbcd887f8	-0.026432022

fc2.bias f4 [128]
0	0xbc7a7260	-0.015286058
1	0x3d46e4e0	0.048558116
2	0x3d498c46	0.04920604
3	0x3c3c8168	0.011505462
4	0x3b1e9420	0.0024197176
5	0x3cdb82a0	0.026795685
6	0x3c89e4b8	0.016832694
7	0xbd5600b6	-0.05224677
8	0x3cb8f8fc	0.022579663
9	0x3c425bc8	0.011862703
10	0x3cb59fa4	0.02217085
11	0x3d6955ca	0.05696658
12	0x3d423d3a	0.04742167
13	0xbcb94948	-0.022617951
14	0x3cb380a4	0.021911927
15	0x3bb48d40	0.0055100024
16	0x3bf7d070	0.0075626895
17	0xbc2a08c8	-0.01037807
18	0x3c7aef70	0.015315875
19	0xbcc078d4	-0.023495115
20	0x3b3c5460	0.0028736815
21	0x3d6003a4	0.054690972
22	0x3b4ab820	0.00309325
23	0x3bf0a1e0	0.0073435158
24	0xbb485720	-0.0030569509
25	0x3cda2354	0.026628174
26	0xbd7dde96	-0.061979853
27	0x3cdb6638	0.02678214
28	0xbc0dd228	-0.008656062
29	0xb9beb900	-0.0003637746
30	0x3c9a90e0	0.01886791
31	0xbbdd35a0	-0.0067507774
32	0xbab82600	-0.0014049411
33	0x3d3c0ce6	0.04591074
34	0xbd1a54e0	-0.0376786
35	0x3ccb374c	0.024806641
36	0xbd560ad8	-0.052256435
37	0xbc9500f0	-0.018188924
38	0xbc8a95e0	-0.01691717
39	0xbd093d4a	-0.033505715
40	0xbc6c07b8	-0.014406137
41	0xbbb8d400	-0.0056405067
42	0x3d456590	0.04819256
43	0xbd4a8d1a	-0.04945097
44	0xbd3a5ede	-0.04550063
45	0xbc9969e8	-0.018727258
46	0x3d4156be	0.047201864
47	0x3d4cc9cc	0.049997136
48	0xbd66ec86	-0.05637791
49	0x3d08c356	0.033389412
50	0x3d3a5156	0.045487724
51	0x3cdc60ec	0.026901685
52	0x3d19f022	0.037582524
53	0x3c0e15c8	0.008672185
54	0xbd5db3d2	-0.05412657
55	0x3b946990	0.0045291856
56	0xbc9b4508	-0.018953815
57	0xbcff6aa4	-0.03117878
58	0x3b40e300	0.0029432178
59	0xbd641c74	-0.055691198
60	0x3d4f8a72	0.05066914
61	0xbd21ebd4	-0.039531544
62	0xbc1d5868	-0.009603597
63	0xbd2c0342	-0.041995294
64	0x3d70435e	0.058657996
65	0xbc4a8af8	-0.012362234
66	0x3cfb92e8	0.030709699
67	0x3d6e8ca2	0.058239587
68	0xbcdf7fec	-0.027282678
69	0xbc9a2d88	-0.01882054
70	0xbce6bfb4	-0.028167583
71	0xba407e00	-0.0007342994
72	0x3cdf2f8c	0.027244352
73	0x3d25d9c8	0.040490896
74	0xbd73d806	-0.059532188
75	0x3d520b30	0.0512802
76	0x3c324dd0	0.01088281
77	0xbd028396	-0.03186377
78	0x3d6ec0e6	0.05828943
79	0x3d6c944c	0.057758614
80	0x3cdc113c	0.026863687
81	0xbd3c706a	-0.046005644
82	0x3c74f680	0.014951348
83	0xbd78e930	-0.06076926
84	0xbd4173da	-0.047229625
85	0x3d001fe2	0.031280406
86	0xbb905940	-0.0044051707
87	0x3d5a1e96	0.053251825
88	0xbd76215a	-0.0600904
89	0x3ce68a5c	0.028142147
90	0xbca825d4	-0.02052585
91	0x3ca4bdec	0.020110093
92	0x3d1e596a	0.03865949
93	0x3d1c9f7e	0.03823804
94	0xbc35e500	-0.011101961
95	0xbd5418cc	-0.05178146
96	0x3b94cf50	0.004541315
97	0x3d6b4238	0.057436198
98	0xbca7aa0c	-0.020466827
99	0xbb045ba0	-0.0020196214
100	0x3cde9c38	0.0271741
101	0xbd085da4	-0.033292428
102	0xbd7f6eb6	-0.06236144
103	0xbd4e1dda	-0.050321437
104	0xbd48a1de	-0.048982494
105	0xbc78a210	-0.015175357
106	0xbd673a14	-0.056451872
107	0xbd02effc	-0.03196715
108	0xbd4cdc24	-0.05001463
109	0xbd3e0a8c	-0.046396777
110	0x3af65380	0.0018793195
111	0x3cd5ea08	0.026112571
112	0x3d474432	0.04864902
113	0xbd00e22e	-0.0314657
114	0x3d76bf00	0.060240746
115	0x3d4c5ce2	0.049893267
116	0x3c3fd130	0.011707589
117	0x3d2c6190	0.04208523
118	0xbd7209c6	-0.059091352
119	0xbc913f34	-0.017730333
120	0xbd2deb68	-0.04246083
121	0xba016180	-0.0004935488
122	0x3c722420	0.014779121
123	0xbd11164a	-0.035421647
124	0xbbfe35d0	-0.00775788
125	0x3d444336	0.04791566
126	0xbb9590f0	-0.004564397
127	0x3d7a817a	0.061158635

fc3.weight f4 [64, 128]
0	0x3da6d501	0.08146096
1	0x3b5b71dd	0.0033484616
2	0x3d30a2a6	0.043123864
3	0x3d9a5319	0.07535381
4	0x3c48d118	0.012256883
5	0x3c546f73	0.012966025
6	0x3d8facb9	0.07015366
7	0x3da7c9c6	0.08192782
8	0x3d8302a5	0.06396989
9	0x3cf74175	0.03018258
10	0xbd0f4e45	-0.034986753
11	0x3d242427	0.04007354
12	0xbcf0d515	-0.02939848
13	0xbb50e5f4	-0.0031875344
14	0x3da30790	0.07960427
15	0x3d7ca396	0.061679445
16	0xbdadb0ae	-0.084809646
17	0x3d20efa2	0.03929103
18	0xbdb26768	-0.087111294
19	0x3c28d724	0.0103052
20	0x3d84bad7	0.06480949
21	0xbcca4190	-0.024689466
22	0x3c12b5c1	0.008954466
23	0x3d149b13	0.036280703
24	0xbdafb78f	-0.08579933
25	0xbd023027	-0.031784203
26	0x3d1a32ec	0.03764622
27	0x3d37fa8c	0.044916674
28	0xbbb67f57	-0.0055693793
29	0xbc967e29	-0.018370705
30	0xbd7e8857	-0.062141743
31	0x3d7fd5d2	0.062459774
32	0xbd0a2a5a	-0.033731796
33	0x3db1f11c	0.08688566
34	0x3d2de692	0.042456217
35	0x3c75c728	0.015001096
36	0xbcf53ff2	-0.029937718
37	0xbb202229	-0.0024434424
38	0xbd3ba467	-0.045811083
39	0xbd5beaa0	-0.053690553
40	0x3d9f86b8	0.077893674
41	0xbd4f2e8b	-0.050581496
42	0x3da9407b	0.08264252
43	0x3d8e6bc4	0.069541484
44	0x3c913a48	0.017727986
45	0x3d35c7e7	0.044380095
46	0x3c6f1286	0.014591819
47	0x3d8e9ed1	0.069638856
48	0xbc46f815	-0.012144108
49	0xbcd96668	-0.026538089
50	0xbdb02b64	-0.08602026
51	0x3d7a32c5	0.061083574
52	0xbcd1881a	-0.025577594
53	0x3c80afed	0.015708888
54	0xbca2193f	-0.019787429
55	0x3d708ff3	0.05873103
56	0xbd3336d2	-0.043753453
57	0x3beab3a8	0.00716253
58	0xbd4f58e4	-0.050621882
59	0x3c563832	0.013074921
60	0xbd413a32	-0.04717464
61	0x3cbddf07	0.023177637
62	0xbda051c8	-0.078280985
63	0x3cad2070	0.021133631
64	0x3d6ce103	0.057831775
65	0x3d08fba5	0.033443112
66	0xbcd58d9b	-0.0260685
67	0x3d9196f2	0.07108869
68	0x3d604583	0.05475379
69	0xbd0e1018	-0.034683317
70	0xbd1aa47d	-0.037754524
71	0x3cb1f2d8	0.021722242
72	0x3da610a2	0.08108641
73	0xbd5ad7ea	-0.053428568
74	0xbdb35a3e	-0.08757447
75	0xbd1859bc	-0.037194952
76	0xbd27d059	-0.04097018
77	0x3d5194f4	0.051167443
78	0xbc5e0f02	-0.013553383
79	0x3da946d7	0.08265465
80	0x3bc58e22	0.0060289064
81	0x3d987192	0.07443537
82	0xbd1473bb	-0.03624318
83	0xbd7cea27	-0.061746743
84	0xbcf282d3	-0.029603397
85	0xbdaaf827	-0.083481126
86	0x3db2fc33	0.087395094
87	0x3c204aa5	0.009783422
88	0x3db45bb8	0.088065565
89	0x3d13938b	0.03602938
90	0x3c23de64	0.0100017525
91	0x3d8243b5	0.0636057
92	0xbd10d3e2	-0.035358317
93	0xbc213030	-0.009838149
94	0xbd072686	-0.032995723
95	0x3db504c0	0.088387966
96	0x3ca0029b	0.019532492
97	0x3d9b00d4	0.07568517
98	0xbd07c48d	-0.03314643
99	0x3d6d9dd8	0.05801186
100	0x3d41ff48	0.047362596
101	0xbcf4a3df	-0.029863296
102	0xbdb1b740	-0.0867753
103	0xbd7d95a6	-0.061910294
104	0x3cb8fc4a	0.022581238
105	0xbd9dceca	-0.077054575
106	0x3cbf8887	0.023380531
107	0x3d39beb8	0.0453479
108	0xbd0b8ade	-0.03406798
109	0xbd511897	-0.05104884
110	0x3d7f9e2b	0.0624067
111	0xbc3150a1	-0.010822446
112	0xbcbd154e	-0.023081448
113	0x3c78a4de	0.015176026
114	0x3d41e41c	0.047336683
115	0xbc18e7c0	-0.009332597
116	0x3d94c23c	0.0726361
117	0xbd77e3c0	-0.060519934
118	0x3d5033a7	0.05083051
119	0xbd6ca55f	-0.057774898
120	0xbd417fe1	-0.047241095
121	0xbd8d7c47	-0.0690847
122	0xbcd0f698	-0.02550821
123	0x3d2916e9	0.041281614
124	0x3d8ce673	0.06879892
125	0x3da91e89	0.08257777
126	0x3d0b87b0	0.03406495
127	0xbd565440	-0.05232644
128	0xbc0b4c1a	-0.008502031
129	0x3d867a88	0.0656634
130	0x3d2c20f0	0.0420236
131	0x3d452d2e	0.04813879
132	0xbb765c44	-0.0037591616
133	0x3d18045c	0.037113532
134	0xbd950b84	-0.07277587
135	0xbccbad3c	-0.024862878
136	0xbc2b7541	-0.010464967
137	0xbd59bd62	-0.053159125
138	0xbd2e900e	-0.04261785
139	0x3d1af579	0.037831757
140	0x3d97f37d	0.074194886
141	0x3c979acb	0.018506428
142	0x3d989112	0.07449545
143	0x3dad06af	0.084485404
144	0x3d008687	0.031378295
145	0x3c3251ee	0.010883791
146	0xbc60dc0f	-0.013724341
147	0xbc631ac3	-0.013861361
148	0xbcb1f4b4	-0.021723129
149	0xbd543936	-0.051812373
150	0x3ba8c970	0.0051509663
151	0x3c915494	0.017740525
152	0xbd12dcef	-0.03585523
153	0xbce0ad6f	-0.02742645
154	0xbc2093c9	-0.00980086
155	0xbd0edc91	-0.034878317
156	0xbcc992a4	-0.024606057
157	0xbd9d64a7	-0.076852135
158	0x3da51749	0.08061082
159	0x3da0b539	0.078470655
160	0xbc02750d	-0.007962477
161	0x3dae0efc	0.08498952
162	0xbb6c0adf	-0.0036017222
163	0xbc5560a9	-0.013023534
164	0x3b6fd3c8	0.0036594737
165	0xbcdb32ab	-0.026757559
166	0xbd1be58f	-0.03806072
167	0x3d8cfe11	0.06884397
168	0xbd2fa4f4	-0.04288192
169	0x3d475763	0.048667323
170	0xbd8b3cb9	-0.06798691
171	0xbbadcc0b	-0.005303865
172	0x396cdea6	0.00022589657
173	0x3cb12dce	0.021628287
174	0x3c290793	0.010316747
175	0x3d42df82	0.047576435
176	0x3d30aadc	0.043131694
177	0x3d31c7e1	0.04340351
178	0xbd987136	-0.07443468
179	0x3cf4b60f	0.029871969
180	0xbcd147c7	-0.025546921
181	0xbc1769b1	-0.009241507
182	0x3d8701ce	0.06592141
183	0xbd47b44b	-0.048755925
184	0xbca0c6e0	-0.019626081
185	0xbd4b5fd7	-0.049651947
186	0x3db4493d	0.088030316
187	0xbdacf946	-0.08445983
188	0xbdb05896	-0.086106464
189	0x3dacd6ac	0.08439383
190	0xbda88b8e	-0.08229743
191	0x3c8b21b8	0.016983852
192	0x3d507e38	0.05090162
193	0x3d934e78	0.07192701
194	0x3d9a422c	0.075321525
195	0xbd65320d	-0.055955935
196	0xbda1357b	-0.07871529
197	0x3d9cb7bc	0.07652232
198	0xbd03b73a	-0.03215716
199	0xbcdd724c	-0.02703204
200	0xbcc368dd	-0.023853714
201	0x3da07bc0	0.078361034
202	0x3d627b0e	0.055293135
203	0xba1860f6	-0.0005812788
204	0x3c9ae7be	0.018909331
205	0xbd82ad2d	-0.06380687
206	0x3d53fa72	0.051752515
207	0xbd37b979	-0.044854615
208	0xbc8b7e65	-0.017028043
209	0x3d42a1b4	0.047517493
210	0x3c3dfe57	0.011596284
211	0x3d4a8914	0.049447134
212	0x3db27cfc	0.08715245
213	0xbd71db4c	-0.05904703
214	0x3c1c3962	0.0095351655
215	0xbcf4db50	-0.029889733
216	0xbd93299f	-0.07185673
217	0xbcde8d51	-0.027166994
218	0x3d68c8a3	0.056831967
219	0x3d2c5204	0.042070404
220	0xbc672953	-0.014108974
221	0xbd4128cb	-0.047158044
222	0xbd1b0220	-0.037843823
223	0x3da01479	0.07816405
224	0x3c67a139	0.01413756
225	0x3d54df0d	0.05197053
226	0xbc8cf0c9	-0.017204659
227	0x3da367ae	0.0797876
228	0xbd9a3bc4	-0.07530931
229	0xbd80b815	-0.06285111
230	0x3d871c03	0.0659714
231	0x3d99774b	0.074934565
232	0xbdadc8c7	-0.08485561
233	0x3aee9de5	0.0018205015
234	0x3cf702fd	0.030152792
235	0xbc224138	-0.009903245
236	0xbd1ec312	-0.038760252
237	0x3db45e40	0.08807039
238	0xbd752f70	-0.059859693
239	0x3b9e1019	0.0048236963
240	0x3da33af5	0.079702295
241	0x3bb96721	0.005658046
242	0x3d661b33	0.056178283
243	0x3dae5fb5	0.085143484
244	0x3db19b89	0.08672244
245	0xbd56a19c	-0.052400216
246	0xbd521b07	-0.051295307
247	0xbd66f259	-0.056383464
248	0xbd235e84	-0.03988506
249	0xbd92cd80	-0.07168102
250	0xbd369934	-0.0445797
251	0xbd81a922	-0.06331088
252	0xbd8887f5	-0.06666557
253	0x3d6f4ddd	0.058423866
254	0x3d215a15	0.03939255
255	0x3da9e5f0	0.0829581

fc3.bias f4 [64]
0	0xbd000afc	-0.031260476
1	0xbd70a502	-0.058751114
2	0x3d0fd704	0.035117164
3	0x3d8e89a6	0.06959848
4	0x3d3b606f	0.045746263
5	0x3cda0eb3	0.026618337
6	0xbd95a8ae	-0.07307564
7	0xbaab18ab	-0.0013053616
8	0xbc98e0a3	-0.018661803
9	0x3d384e7f	0.044996735
10	0xbc917301	-0.017755033
11	0x3c726674	0.014794935
12	0x3d0ae8d7	0.03391346
13	0xbd661f57	-0.05618223
14	0xbc8fbdb4	-0.017546512
15	0xbd088784	-0.033332363
16	0x3b1234ee	0.002230938
17	0x3db18b06	0.08669095
18	0x3d89f7d4	0.067367226
19	0xbda52f06	-0.0806561
20	0x3c02c176	0.007980695
21	0xbcccf659	-0.025019811
22	0xbd292154	-0.04129155
23	0xbd6624e3	-0.05618752
24	0xbd1d5f9b	-0.038421255
25	0x3d381dea	0.044950403
26	0x3da33ddc	0.07970783
27	0x3d26a3a1	0.040683392
28	0x3d1d1420	0.03834927
29	0x3afbdab4	0.0019214959
30	0xbd696949	-0.056985173
31	0x3d6ba333	0.057528686
32	0xbd67f243	-0.056627523
33	0xbd86f7b2	-0.06590213
34	0x3d3e8e75	0.046522576
35	0xbc7544d4	-0.014970023
36	0x3d192f59	0.03739867
37	0xbc9a7d1a	-0.018858481
38	0xbd3f5927	-0.04671588
39	0xbc29ce2f	-0.010364099
40	0x3daa2721	0.083082445
41	0xbd5c81e4	-0.05383481
42	0x3d5d40be	0.05401682
43	0x3d517a61	0.0511421
44	0xbd60bf3f	-0.054869886
45	0x3d824651	0.06361068
46	0xbd1d2cf0	-0.038372934
47	0xbc624000	-0.013809204
48	0x3cf322e6	0.029679727
49	0xbda72612	-0.08161558
50	0xbd379c92	-0.04482705
51	0xbd54c38a	-0.051944293
52	0xbd9b990f	-0.07597553
53	0xbcbad892	-0.022808347
54	0x3c926a5c	0.017872982
55	0xbd356af0	-0.044291437
56	0xbd8eec16	-0.069786236
57	0x3d50d2da	0.050982334
58	0xbc2fcdee	-0.01073025
59	0xbdac3c5b	-0.084099494
60	0xbd820796	-0.06349103
61	0x3c256057	0.01009377
62	0xbd5c9608	-0.05385402
63	0xbd5fcde7	-0.054639723

fc4.weight f4 [4, 64]
0	0xbde8d24a	-0.113682345
1	0xbcfd6fe0	-0.030937135
2	0x3daffe84	0.08593467
3	0x3c813f80	0.01577735
4	0xbd871370	-0.06595504
5	0x3d87f0ca	0.06637724
6	0x3d5b1e4c	0.05349569
7	0xbc5f8020	-0.013641387
8	0xbdb63e72	-0.08898629
9	0xbce9dc60	-0.028547466
10	0xbd80d1a2	-0.06289984
11	0xbd8afd08	-0.06786543
12	0xba556100	-0.00081397593
13	0xbc1fbf20	-0.009750158
14	0xbd9c2ab6	-0.07625334
15	0x3d227200	0.0396595
16	0x3d9ba402	0.075996414
17	0xbd569248	-0.0523856
18	0xb9bba800	-0.0003579259
19	0x3ccac0a0	0.024750054
20	0xbd800dda	-0.06252642
21	0xbd80a27e	-0.06280993
22	0x3d8dc5b4	0.069224745
23	0x3dd58d7a	0.10427375
24	0x3cbb4450	0.022859722
25	0x3dfaae5e	0.12240289
26	0x3d6d88fc	0.057991967
27	0x3c0a79e0	0.008451909
28	0xbd5c1814	-0.0537339
29	0xbcd82eb8	-0.026389465
30	0x3db0b2d8	0.08627862
31	0x3da09382	0.07840635
32	0x3dfcf528	0.12351447
33	0xbd304f24	-0.043044224
34	0x3ddec0ca	0.10876615
35	0xbd8d4c9a	-0.06899376
36	0x3ce1edf8	0.027579293
37	0xbcdea200	-0.027176857
38	0x3a945d80	0.0011319369
39	0x3cf7fd68	0.0302722
40	0x3d7d1470	0.06178707
41	0x3dfb2a7a	0.12263961
42	0x3dbf5482	0.093422905
43	0x3df31222	0.11868693
44	0xbd65d188	-0.056108028
45	0xbdf0c8de	-0.117570624
46	0xbce761b8	-0.028244838
47	0x3da07bbc	0.078361005
48	0xbdc9a886	-0.098465964
49	0xbdb9ab1e	-0.09065841
50	0xbd66e4a4	-0.056370392
51	0xbceeb378	-0.029138312
52	0xbdb7a574	-0.089671046
53	0xbd66d6e4	-0.05635728
54	0x3befbd80	0.0073162913
55	0xbdfb2c8c	-0.12264356
56	0x3d13d098	0.036087602
57	0xbdd0b49c	-0.101906985
58	0xbdce2458	-0.10065526
59	0xbdc9066c	-0.09815678
60	0x3cf03cc0	0.029325843
61	0x3da56080	0.080750465
62	0x3dba2d46	0.090906665
63	0xbd9adbb8	-0.07561439
64	0xbdadfa0c	-0.08494958
65	0xbdf680ea	-0.12036307
66	0x3c001780	0.007818103
67	0x3d44df88	0.04806474
68	0x3d784dac	0.06062095
69	0x3d055754	0.032553986
70	0xbcf6fb90	-0.030149251
71	0x3de96e06	0.113979384
72	0x3d7e2b2c	0.06205289
73	0xbd81dcf8	-0.063409746
74	0xbdf4afa2	-0.11947562
75	0xbde36e72	-0.1110505
76	0xbdafce74	-0.085843
77	0x3dfcf262	0.12350918
78	0xbd935712	-0.07194342
79	0xbc211d50	-0.009833649
80	0x3dc711d4	0.09720197
81	0xbd876664	-0.06611326
82	0xbc0399d0	-0.008032277
83	0x3c6f98f0	0.0146238655
84	0xbbab9020	-0.005235687
85	0xbdad233c	-0.08453986
86	0xbdafd7fa	-0.08586116
87	0x3db2bd92	0.08727564
88	0x3c3f19f0	0.011663899
89	0xbdd7bc9c	-0.10534021
90	0x3dc31676	0.095257685
91	0x3c3753f0	0.011189446
92	0x3d6df5e4	0.058095828
93	0x3c0ec0b0	0.0087129325
94	0xbc940558	-0.018068954
95	0xbd57b980	-0.05266714
96	0xbd930112	-0.071779385
97	0x3bfe8220	0.007766977
98	0x3d8e538a	0.069495276
99	0x3dc1ecde	0.09469007
100	0xbd137124	-0.03599657
101	0x3df2957e	0.118449196
102	0x3d5ccf18	0.053908437
103	0x3da3cfde	0.07998632
104	0xbdf74044	-0.120728046
105	0xbd9c7aa8	-0.07640582
106	0x3dae445a	0.08509131
107	0x3c289c10	0.010291114
108	0xbcfb6468	-0.030687526
109	0xbd6c0848	-0.057625085
110	0xbcde7bf0	-0.027158707
111	0xbdb3610c	-0.087587446
112	0xbd9eb46a	-0.07749255
113	0x3d0d2610	0.034460127
114	0xbd8c7640	-0.06858492
115	0xbd310270	-0.043215215
116	0x3dd8c6d6	0.105848
117	0x3daadd5a	0.08343001
118	0x3d6b974c	0.057517335
119	0x3cd24dd0	0.02567187
120	0xbc74c4f0	-0.014939532
121	0x3ddf2138	0.10895008
122	0xbda312d2	-0.07962574
123	0xbc217c10	-0.009856239
124	0xbcf13048	-0.029441968
125	0x3d08a968	0.033364683
126	0xbc08a390	-0.008339778
127	0xbc851718	-0.016246364
128	0xbcc353f8	-0.02384375
129	0xbde3b55c	-0.11118576
130	0x3d5bf3d4	0.05369933
131	0x3c3f8220	0.011688739
132	0xbd2f5a98	-0.042811006
133	0xbd084804	-0.033271804
134	0x3d8a9612	0.06766905
135	0x3db60218	0.08887118
136	0xbd9e84bc	-0.07740161
137	0xbbd77c00	-0.0065760612
138	0xbd282c48	-0.041057855
139	0x3da91502	0.0825596
140	0xbd1ef2a0	-0.038805604
141	0xbd31ed9c	-0.043439493
142	0xbd89a846	-0.06721549
143	0xbd30e054	-0.043182686
144	0x3caf5aa0	0.021405518
145	0xbdb5cfd6	-0.08877532
146	0xbdf11068	-0.11770707
147	0xbda3844c	-0.07984218
148	0xbdc52978	-0.0962705
149	0x3dfb29e8	0.12263852
150	0x3c5821a0	0.013191611
151	0xbd55f118	-0.052231878
152	0x3d5a9558	0.05336508
153	0x3dd13a8c	0.10216245
154	0x3dd55256	0.10416095
155	0x3d8a15da	0.06742449
156	0xbda8f0e0	-0.08249068
157	0x3dcb9a86	0.099415824
158	0xbdaf246c	-0.08551869
159	0x3dba672e	0.09101711
160	0xbda57202	-0.08078386
161	0x3db9d548	0.09073883
162	0xbd912c52	-0.070885316
163	0xbde0fa60	-0.10985255
164	0xbd9f12a6	-0.07767229
165	0x3d9fa59e	0.07795261
166	0xbd394560	-0.045232177
167	0xbdc188ca	-0.094499186
168	0xbd917404	-0.07102206
169	0x3dbc70a2	0.092011705
170	0x3da0b2bc	0.07846591
171	0x3d43fc10	0.047847807
172	0xbded9a7c	-0.11601731
173	0xbdf7a30a	-0.12091644
174	0xbc5ebe50	-0.013595179
175	0xbdc1f29a	-0.09470101
176	0x3cfdfb70	0.031003684
177	0x3bff5260	0.0077918023
178	0x3d9a9e96	0.07549779
179	0x3d069120	0.032853246
180	0xbd181864	-0.037132636
181	0xbd3efc78	-0.04662749
182	0x3dfdedb4	0.12398854
183	0x3dcf4aa0	0.101216555
184	0xbd829c28	-0.06377441
185	0x3dfc9c24	0.12334469
186	0x3d853d3e	0.06505822
187	0xbde18cd0	-0.11013186
188	0x3d8a91cc	0.0676609
189	0xbcbf6df0	-0.023367852
190	0xbd452cac	-0.048138306
191	0x3df2ca04	0.11854938
192	0xbd6d3198	-0.057908624
193	0xbda5eb40	-0.08101511
194	0xbdb8497c	-0.08998391
195	0x3c52a220	0.012856036
196	0xbdd883be	-0.10572003
197	0xbdccae8e	-0.09994231
198	0x3d18cd40	0.037305117
199	0xbc479f40	-0.012183964
200	0xbdd68d60	-0.10476184
201	0x3dbbfb44	0.091787845
202	0xbd9b59b4	-0.07585469
203	0x3dc4e226	0.09613447
204	0xbdc58be0	-0.0964582
205	0x3b591000	0.003312111
206	0xbd3f980c	-0.046775863
207	0x3d188414	0.037235335
208	0xbdba6fe8	-0.09103376
209	0xbdf173fa	-0.11789699
210	0xbdf1522a	-0.1178325
211	0x3daf7bb8	0.08568519
212	0xbde9072a	-0.113783196
213	0x3d0c3d98	0.034238428
214	0xbdfac806	-0.12245183
215	0xbd825ba4	-0.06365135
216	0x3c300c80	0.010745168
217	0xbdac46ec	-0.08411965
218	0x3c6608e0	0.014040202
219	0x3d3b72c8	0.04576376
220	0x3cc30d50	0.023810059
221	0x3ba8fa80	0.005156815
222	0xbd006c8c	-0.03135352
223	0xbd99d388	-0.075110495
224	0x3df26be0	0.11836982
225	0x3c003d10	0.007827058
226	0x3ccdf3d0	0.025140673
227	0x3dc6249a	0.0967495
228	0xbdfc31b2	-0.12314166
229	0x3db9e2e0	0.09076476
230	0xbd6698dc	-0.05629812
231	0xbdb570d6	-0.08859412
232	0x3d623628	0.05522743
233	0xbc2289b0	-0.009920523
234	0xbd1f7928	-0.038933903
235	0x3dc68b5c	0.096945494
236	0x3dded1dc	0.10879871
237	0x3dd64cae	0.10463844
238	0x3d3a07bc	0.045417532
239	0x3d3345fc	0.043767914
240	0x3d4f3b28	0.050593525
241	0xbdfa602a	-0.12225373
242	0xbd7fc010	-0.062439024
243	0xbcf1fbb8	-0.029538974
244	0xbd270af0	-0.040781915
245	0x3c09f3f0	0.008419976
246	0xbc1d7e70	-0.009612665
247	0xbc4c4e60	-0.012469858
248	0xbdb964ec	-0.090524524
249	0xbda64e4e	-0.08120404
250	0xbd563f28	-0.052306324
251	0xbdf91cc4	-0.1216369
252	0xbdbf8f7e	-0.09353541
253	0x3d80a620	0.06281686
254	0x3d1b35e8	0.037893206
255	0xbcb94320	-0.022615016

fc4.bias f4 [4]
0	0x3dce6a4c	0.10078868
1	0xbd44434c	-0.04791574
2	0x3cd263c8	0.025682345
3	0xbd974d9a	-0.07387848
